…
ator_epochs=1, vocab='data/wikiTable/word.vocab')
15:19:05, 721 __main__ INFO Saving hyperparameters to: results/cgan-exp-1/hyparams.txt
15:19:05, 730 datasets.builder WARNING Reusing dataset wiki_table_questions (/home/CE/pinjie/.cache/huggingface/datasets/wiki_table_questions/WikiTableQuestions/0.0.0/6a4116117d81a3d888218d55619bdb3ba81a1942ee880bf11b7f64a30e2f8e1a)
15:19:05, 743 __main__ INFO Loading Datasets
15:19:05, 753 root INFO PAD_IDX: 8133
15:19:08, 555 root INFO TransformerEncoder(
  (enc_layers): ModuleList(
    (0): TransformerEncLayer(
      (mha): MultiHeadAttention(
        (w_q): Linear(in_features=512, out_features=512, bias=True)
        (w_k): Linear(in_features=512, out_features=512, bias=True)
        (w_v): Linear(in_features=512, out_features=512, bias=True)
      )
      (ffn): FeedForwardBlock(
        (dense1): Linear(in_features=512, out_features=2048, bias=True)
        (relu): ReLU()
        (dense2): Linear(in_features=2048, out_features=512, bias=True)
      )
      (layernorm1): LayerNorm((512,), eps=1e-06, elementwise_affine=True)
      (layernorm2): LayerNorm((512,), eps=1e-06, elementwise_affine=True)
      (dropout1): Dropout(p=0.1, inplace=False)
      (dropout2): Dropout(p=0.1, inplace=False)
    )
    (1): TransformerEncLayer(
      (mha): MultiHeadAttention(
        (w_q): Linear(in_features=512, out_features=512, bias=True)
        (w_k): Linear(in_features=512, out_features=512, bias=True)
        (w_v): Linear(in_features=512, out_features=512, bias=True)
      )
      (ffn): FeedForwardBlock(
        (dense1): Linear(in_features=512, out_features=2048, bias=True)
        (relu): ReLU()
        (dense2): Linear(in_features=2048, out_features=512, bias=True)
      )
      (layernorm1): LayerNorm((512,), eps=1e-06, elementwise_affine=True)
      (layernorm2): LayerNorm((512,), eps=1e-06, elementwise_affine=True)
      (dropout1): Dropout(p=0.1, inplace=False)
      (dropout2): Dropout(p=0.1, inplace=False)
    )
  )
  (dropout): Dropout(p=0.1, inplace=False)
)
15:19:08, 630 root INFO CustomLSTM(
  (embedding): Embedding(11471, 300)
  (lstm): LSTM(300, 128, batch_first=True, bidirectional=True)
  (drop): Dropout(p=0.5, inplace=False)
  (fc): Linear(in_features=256, out_features=1, bias=True)
)
15:19:21, 167 root INFO Model: generator, Step: 50, Loss: 7.67
15:19:34, 29 root INFO Model: generator, Step: 100, Loss: 6.10
15:19:46, 736 root INFO Model: generator, Step: 150, Loss: 5.13
15:19:59, 432 root INFO Model: generator, Step: 200, Loss: 4.92
15:20:23, 693 root INFO Model: generator, Step: 50, Loss: 4.48
15:20:36, 185 root INFO Model: generator, Step: 100, Loss: 4.03
…
