…
ator_epochs=1, vocab='data/wikiTable/word.vocab')
19:50:45, 377 __main__ INFO Saving hyperparameters to: results/cgan-exp-50/hyparams.txt
19:50:45, 386 datasets.builder WARNING Reusing dataset wiki_table_questions (/home/CE/pinjie/.cache/huggingface/datasets/wiki_table_questions/WikiTableQuestions/0.0.0/6a4116117d81a3d888218d55619bdb3ba81a1942ee880bf11b7f64a30e2f8e1a)
19:50:45, 399 __main__ INFO Loading Datasets
19:50:45, 409 root INFO PAD_IDX: 600
19:50:48, 207 root INFO TransformerEncoder(
  (enc_layers): ModuleList(
    (0): TransformerEncLayer(
      (mha): MultiHeadAttention(
        (w_q): Linear(in_features=512, out_features=512, bias=True)
        (w_k): Linear(in_features=512, out_features=512, bias=True)
        (w_v): Linear(in_features=512, out_features=512, bias=True)
      )
      (ffn): FeedForwardBlock(
        (dense1): Linear(in_features=512, out_features=2048, bias=True)
        (relu): ReLU()
        (dense2): Linear(in_features=2048, out_features=512, bias=True)
      )
      (layernorm1): LayerNorm((512,), eps=1e-06, elementwise_affine=True)
      (layernorm2): LayerNorm((512,), eps=1e-06, elementwise_affine=True)
      (dropout1): Dropout(p=0.1, inplace=False)
      (dropout2): Dropout(p=0.1, inplace=False)
    )
    (1): TransformerEncLayer(
      (mha): MultiHeadAttention(
        (w_q): Linear(in_features=512, out_features=512, bias=True)
        (w_k): Linear(in_features=512, out_features=512, bias=True)
        (w_v): Linear(in_features=512, out_features=512, bias=True)
      )
      (ffn): FeedForwardBlock(
        (dense1): Linear(in_features=512, out_features=2048, bias=True)
        (relu): ReLU()
        (dense2): Linear(in_features=2048, out_features=512, bias=True)
      )
      (layernorm1): LayerNorm((512,), eps=1e-06, elementwise_affine=True)
      (layernorm2): LayerNorm((512,), eps=1e-06, elementwise_affine=True)
      (dropout1): Dropout(p=0.1, inplace=False)
      (dropout2): Dropout(p=0.1, inplace=False)
    )
  )
  (dropout): Dropout(p=0.1, inplace=False)
)
19:50:48, 282 root INFO CustomLSTM(
  (embedding): Embedding(11471, 300)
  (lstm): LSTM(300, 128, batch_first=True, bidirectional=True)
  (drop): Dropout(p=0.5, inplace=False)
  (fc): Linear(in_features=256, out_features=1, bias=True)
)
19:51:00, 895 root INFO Model: generator, Step: 50, Loss: 7.74
19:51:13, 575 root INFO Model: generator, Step: 100, Loss: 6.13
19:51:26, 95 root INFO Model: generator, Step: 150, Loss: 5.23
19:51:38, 703 root INFO Model: generator, Step: 200, Loss: 4.74
19:52:02, 826 root INFO Model: generator, Step: 50, Loss: 4.29
19:52:15, 598 root INFO Model: generator, Step: 100, Loss: 4.09
…
